Assets/Scripts/ML-Agents/Chaser 1.onnx (onnx, 91531 bytes, 6 tensors)

network_body._body_endoder.seq_layers.0.weight f4 [128, 32]
00000000: e04f c83e 6089 4fbe 7431 80be 00dd 253d
00000010: 94dc 0bbc 54d3 133f 3ccf 703e 9f21 98be
00000020: b6ee bc3c f63d 053d b0f9 3bbe 4b47 38be
00000030: a3dc 92bd bbf9 17be 0d53 0f3d 2a32 643e
00000040: aea9 1f3e c37f e23d 2744 963d d595 fb3d
00000050: 556f b43d e297 a4bd fb84 ea3e 22cf 0c3f
00000060: 0903 6bbd 2f4f 7dbe f773 0dbe 96ee f73e
00000070: 4f82 46bc aeb6 3a3d 729f 7c3e 8774 a23d
00000080: 316a a2bd bfcd c13d bb6b 26be c981 09be
00000090: 321b 0ebe af13 33bd 33f8 9cbe bbbe 803e
000000a0: d615 6abe 7bc0 ff3d 9c09 af3d 5a94 223b
000000b0: cb75 e43d 003e e2bb 96db ccbd bf05 343e
000000c0: 50c2 ccbd daf7 033e d993 cdbd ecd7 14be
000000d0: a2d9 16bd 6091 2f3d 96ef 37be f8ef afbd
000000e0: f8a5 153e d819 093e df72 c1bd 701f 3abe
000000f0: 3cdd 25bd 71ff 8f3e 46fd bc3d 1e28 603d
00000100: e811 1e3e 0d80 1bbe 9753 f63d 7c92 a43b
00000110: 3d80 cb3c d8df 293d 3a63 03bd c3b7 bb3c
00000120: a5e0 443e 0f33 673e 70e3 74be 011e 35be
00000130: 5984 a5bd aab4 24bd 2de0 f83e a862 403d
00000140: b153 723e 9cd6 6c3e 0c9d 323e ae91 af3e
00000150: 26ca 8c3e 87f7 49bb 2958 7d3e 7dbc 35be
00000160: fa81 afbc 3184 223e 5bee 5a3e e25a 80be
00000170: 7904 243e c502 f73d 1c36 f23d 3733 35be
00000180: a226 87bd aeee 8a3e 3ab5 5fbe ffb5 76be
00000190: 0b3a e2bd ab1e 753e 0cc8 84be 3f16 1dbe
000001a0: b9ce 15be 2971 16bb 1297 21be 3107 c53d
000001b0: a5b8 cfba 54e4 fcbd 8d53 f43d 2570 1ebd
000001c0: bdc0 dfbd 56fb d43d 78d4 623c 40ec fb3d
000001d0: 90a7 d03d 23ca 4bbe b992 89be 05a2 13be
000001e0: d362 5a3c 9c38 37bc 9fcb 633d 83c6 273e
000001f0: 257c f3bd 19aa cc3d c0e8 4abe a0ee d93d
00000200: f682 04be f753 f8bd 7cca cfbd 6255 e4be
00000210: e7ef 053e f266 8a3b 62b9 423d f7e6 3bbe
00000220: 62a4 3b3e 85df 06be 42ad 7f3e a029 1c3e
00000230: 4e08 3ebe e7f5 be3d 0cba 943e 61be a33d
00000240: dfc3 fabe 3380 91be 4f17 1cbe 2c74 183e
00000250: d9bc 803d ab87 81be 4840 293d 4f70 993d
00000260: fd5e 8c3e 7cb9 7c3e 828e bb3d e758 a6bd
00000270: 38f5 3f3c 803d 97bc f734 afbe cbaa 7a3d
00000280: 62ff 7a3d c5bd 743c bea1 8f3e a797 ee3e
00000290: 0e2d 233e 4be4 14bd 0686 a03d eae5 543e
000002a0: e42b 4a3e 7541 773d 2fc9 d1bd 08a1 1abe
000002b0: d0d9 acbd 25c1 d93c 2dc5 243e 0592 e0bb
000002c0: 8cdb 843d 9a58 69bd 04b1 b5bd be13 26be
000002d0: 66db 4b3e 90b0 d1bc 6bf5 433e eb01 133e
000002e0: 590f cc3e 5e89 99bc 8a1e 5e3d c81f e43c
000002f0: 8655 17bc 9c1c 243e 047b d1bc 83b5 02bb
00000300: 2160 07be e12e 303e 612a 30be 82da 90bd
00000310: fbfd 15bc 3f29 4dbe 4811 bb3e fe00 adbb
00000320: 5618 18bf 8859 9b3c 265f 353e c7e8 143e
00000330: 654c f73c 9db3 5b3c b1cb 353d bdf1 cfbd
00000340: d230 89bc cb5a d73a 7a06 413d 2e00 0e3e
00000350: 16fd 853d f9e9 d2bd afd1 523c 2c7d 50be
00000360: a10e 3dbe 388a 7e3e 0a04 e7bd e43c c93d
00000370: 8d86 1bbd 861e a03b 3785 c73d 111e 76be
00000380: 4e08 e53d 8ace 51be e29e 283e 60fa 7a3e
00000390: 50d5 f73d 06dc 04bd 0521 f4bd 0a53 723e
000003a0: d30d 333d 60ee 563e 9d73 033e 1468 b6bd
000003b0: 4d4e 25bd 0aa9 4e3c 2e73 18be fe61 7e3e
000003c0: 5c38 943d 7b09 a6bd f08c de3c bd41 6e3c
000003d0: cf9b 203e 2d70 86be ee48 853d 47e7 b33c
000003e0: 41fe b6bd 3e23 973c fdcf 0d3e cd63 8bbd
000003f0: 1efd 8a3e 84c6 0abd 0fc2 c23e b1a5 533e
0.3912344 -0.20267248 -0.2503773 0.040493965 -0.008536477 0.57744336 0.23516554 -0.2971315
0.023063045 0.032529794 -0.18356967 -0.17995946 -0.07170989 -0.14841358 0.034991313 0.22284761
0.15592071 0.11059525 0.07337218 0.122844376 0.088102974 -0.08036782 0.4580458 0.5500356
-0.05737594 -0.24737237 -0.13813768 0.48424214 -0.012116029 0.045584373 0.24670199 0.07932382
-0.07930411 0.09463071 -0.16252033 -0.13428415 -0.13877562 -0.043719944 -0.3065811 0.25145516
-0.22859892 0.124878846 0.08546755 0.0024807663 0.1115528 -0.0069043636 -0.1000282 0.17580317
-0.09998 0.12887517 -0.10037965 -0.14535493 -0.036828645 0.04286325 -0.17962489 -0.08590692
0.14614093 0.13388765 -0.09445738 -0.18176055 -0.04049419 0.28124574 0.092279956 0.05472576
0.15436518 -0.15185566 0.12027662 0.005022345 0.024841422 0.04147324 -0.03207705 0.022914773
0.1922632 0.22578071 -0.23914886 -0.17687227 -0.08081884 -0.040211357 0.48608533 0.046969086
0.23664738 0.23128742 0.17442721 0.34290832 0.27497977 -0.0030817704 0.24740662 -0.17747684
-0.021424282 0.1587074 0.21379988 -0.25069338 0.16017331 0.12061075 0.11826727 -0.17695318
-0.065991655 0.27135223 -0.21846476 -0.24092864 -0.11046227 0.2393748 -0.25933874 -0.15340517
-0.1462964 -0.0022955632 -0.15780285 0.09620512 -0.0015847875 -0.12348238 0.119299985 -0.038681168
-0.10925434 0.10399501 0.013844602 0.123009205 0.1018821 -0.19901328 -0.26869753 -0.14417274
0.013329226 -0.01118293 0.05561411 0.1638432 -0.11888913 0.09993381 -0.1981535 0.10641217
-0.12940583 -0.1212539 -0.10146043 -0.44596392 0.13079797 0.004223698 0.047540076 -0.18349825
0.18324426 -0.13171203 0.24968436 0.15250254 -0.18557855 0.09324246 0.29048193 0.07995296
-0.48977563 -0.2841812 -0.15243267 0.14888066 0.0628602 -0.2529882 0.04132107 0.07492124
0.2741622 0.24680132 0.091580406 -0.081224255 0.01171618 -0.018461943 -0.34220096 0.061198037
0.06127871 0.014937823 0.28053087 0.46600077 0.15935156 -0.03635053 0.07838063 0.2079083
0.19743305 0.06036516 -0.10243451 -0.15100491 -0.08439982 0.026581356 0.16090842 -0.0068533444
0.06487188 -0.056969263 -0.08871654 -0.16218469 0.19907913 -0.025596887 0.19136588 0.143562
0.3985546 -0.01874226 0.054228343 0.027847186 -0.009236699 0.16026539 -0.025571354 -0.0019944615
-0.13220264 0.17205383 -0.17203666 -0.07072927 -0.009154792 -0.20035265 0.36536622 -0.0052796593
-0.59412134 0.01896359 0.17712077 0.14541923 0.030187795 0.013409522 0.04438371 -0.1015353
-0.016746912 0.0016430257 0.047125317 0.13867256 0.06542413 -0.10298533 0.012867375 -0.2036025
-0.18462612 0.24857414 -0.11280067 0.09826067 -0.037970114 0.004886451 0.097422056 -0.24034907
0.111832246 -0.20488945 0.16466859 0.24509573 0.12101233 -0.032436393 -0.119203605 0.2366449
0.043714356 0.2098937 0.12837072 -0.0890657 -0.040357877 0.012613544 -0.14887688 0.24842069
0.07237312 -0.08107277 0.027166814 0.01454204 0.15684436 -0.26257458 0.06508051 0.021960868
-0.08935214 0.018449422 0.13848872 -0.06806145 0.27146238 -0.033880726 0.3803868 0.20668675

network_body._body_endoder.seq_layers.0.bias f4 [128]
00000000: 236f ed3c e2e7 e3b8 12d7 1a3d 47ab 26bc
00000010: a310 e23c f126 c23c 1b62 cb3c 1485 8c3c
00000020: 227d b83c 43ce c5bc 8a98 593d 2053 943b
00000030: a6d3 a43d 5a29 bc3c 74f7 393d c00a 033c
00000040: 544d 383d eaf8 08bd fabf 533c 9eb5 69bb
00000050: 632d cebc 03ee 08bc d7b1 7abb 5b25 e8bb
00000060: 46e7 e23c c56e 86bc 50b6 7a3d 3562 6c3d
00000070: f6c3 7fbb 5d79 71bc de73 e5bc e404 233d
00000080: b1a8 f93c 6e64 0b3d f5c7 c9bc b8b4 e03c
00000090: f1ac 5c3d 5f98 28bc 6af8 bd3c b974 aa3c
000000a0: 47e8 7fbc 843d 8e3d b407 4f3c 0bd7 94bb
000000b0: 86ec 24bb cb50 1e3c 36e3 3d3c f5b0 313c
000000c0: 9948 093d a46a 4b3b 0383 1d3c 29cc 883c
000000d0: fd6e 8d3b e706 0f3c 63f0 d13b 0696 923d
000000e0: eeb9 0b3d 02e1 54bc 0e18 d33c 8007 0b3d
000000f0: 4eb0 eebc c79b da3c 82a8 a93c a3a3 c53b
00000100: 83b3 2c3c c09f 5b3d 746a 4d3d e949 a13d
00000110: 7bc4 943c 34cc b8bc 57b6 5b3c 37b2 9b3a
00000120: ad97 c3bc 20ea afbc ba84 a33c 6d12 e43c
00000130: 4ee5 b3bb f294 63bc e4c0 11bc c1e2 4f3d
00000140: bffa 843c b13e bcbc 1ff5 ce3c d96a 993a
00000150: 5406 293d 8717 d43c 8392 193c ab28 753c
00000160: 2bab a6bc 1281 e13b 8bb6 7fba ac89 c5bc
00000170: b794 063d 652c bf3c 522e 6e3c c137 2e3d
00000180: 7b43 38bc 986a adbc b016 fc3c eb78 c63c
00000190: d4a0 8b3c 5f9e d1bc 115d 92bb fc7e babb
000001a0: 4e39 113d 71d9 1ebc df2e d23c 8413 033c
000001b0: 61cc 463d c86e 94bc 9b2b a6bc add2 c9bc
000001c0: da70 b6bc 9f11 a8bc c545 5b3c 229b 823d
000001d0: 53eb 15b9 7897 f93c 61b1 013c 947c 06bd
000001e0: bf99 503d c6d1 03ba 9d0e a33b 5a69 77bc
000001f0: bc14 a03d 251c 043d 4215 25bc 8043 b9bb
0.028983658 -0.00010867395 0.037802763 -0.010172672 0.027595824 0.02370021 0.024827054 0.0171533
0.022520605 -0.024146205 0.05312399 0.004526511 0.08048181 0.022968937 0.045402005 0.0079981685
0.04499562 -0.033440508 0.012924189 -0.003566123 -0.025168126 -0.008357528 -0.0038252973 -0.0070845312
0.02769817 -0.01641024 0.061209023 0.057710845 -0.0039026714 -0.014738408 -0.028009351 0.039799586
0.030475946 0.034031324 -0.02463148 0.027429923 0.053875867 -0.010290234 0.023189742 0.02080761
-0.015619344 0.06945327 0.012636114 -0.0045422367 -0.0025165393 0.009662817 0.011589816 0.0108454125
0.0335165 0.0031038905 0.009613755 0.016698914 0.0043162093 0.008729673 0.00640683 0.07157521
0.034112863 -0.012993099 0.025768306 0.0339427 -0.029136803 0.026685609 0.020710234 0.00603147
0.010540846 0.053619146 0.05015035 0.07875425 0.018160095 -0.02255831 0.013410172 0.0011878674
-0.023876036 -0.021473944 0.01996075 0.027840817 -0.0054899817 -0.013890492 -0.008896086 0.05075336
0.016232846 -0.022979112 0.025263367 0.0011704817 0.0412658 0.025890125 0.00937331 0.014963309
-0.020345291 0.0068818415 -0.0009754679 -0.024113499 0.03285667 0.023336599 0.014537411 0.04253364
-0.011246557 -0.021168992 0.030772537 0.02422758 0.017044462 -0.025588213 -0.004466661 -0.0056914072
0.03545504 -0.009695397 0.025657116 0.008000258 0.048534755 -0.01811923 -0.020284465 -0.02463659
-0.022270609 -0.020516215 0.013383334 0.063772455 -0.00014297412 0.030467734 0.007915826 -0.03283365
0.050927874 -0.0005028512 0.0049761073 -0.015100801 0.07816455 0.032253403 -0.010075869 -0.0056537986

network_body._body_endoder.seq_layers.2.weight f4 [128, 128]
00000000: 0a98 89bd b15f cdbd 1a57 18bd 2fca e03d
00000010: a526 60bd ec1d cbbd b174 c23b 4ae0 9c3d
00000020: df71 143b ad16 ff3d c25f b1ba 9ac7 0c3e
00000030: a948 80bd 15b0 61bc 91ba 113d 07f2 1bbd
00000040: e4d6 0dbe abbb bcba d047 1e3d 90dd 293e
00000050: af4c 36bd 7174 1b3e 2ddd 9c3d e0d2 283d
00000060: cce9 ce3c 34d3 e03c aba7 e2bd 10f5 36bd
00000070: e011 073d abc8 dbbc c2f5 6cbc 8b5e 11be
00000080: 6b78 9dbd a7b7 8d3d ad9f 5b3a 0583 28be
00000090: 2fe4 5a3b c840 c33c 93b3 71bd 51e3 6bbc
000000a0: d0ae 033e 0064 f1bd a30b 48bd 4e3c 47bc
000000b0: 774d b63d 2709 463e 03f7 c1bd b55c c93c
000000c0: 6da7 b8bd ed16 43bd 56c3 7abd 924a 91bd
000000d0: 83d5 f8bc 82dc 073e 0a8f f43c 71df 043c
000000e0: ca38 c7bd bb6e 523d be33 a9bc 3be0 053c
000000f0: 94fb a53c 2832 823d d9c7 d3bc a614 3cbd
00000100: 2977 5e3d c295 d3bd 580f 0fbe d46e cdbd
00000110: 9744 7d3e c6e7 a83d cbee 67bc 973e 833d
00000120: e703 073d 06de 323e 7af8 fa3d 5acf 05bd
00000130: 108c d1bc 5a36 a9bd b631 f73c c545 26be
00000140: ce6f e53d ed2d 88bd 6170 cfbd 373e 633e
00000150: d7c7 093e bb1c a63d 9a8b 27be 8e35 07be
00000160: 38ad ac3c 063d 52be 7412 5a3d 07bc b53d
00000170: 1fa6 19be 55f8 a43d fb8d 673d 6aa5 0cbe
00000180: 66fd e23d 86c2 ebbd af09 b5bc 6a97 9cbc
00000190: 4cbd 58bd 388a e03d 2fd8 153e 994f 87bd
000001a0: 7322 9d3b a6fe 5d3c d4ee 8b3d dd4f a43d
000001b0: a6cc 19bd a877 ef3d ad9d 9d3d 205e 7abc
000001c0: e85a 103d 8592 b3bc 2d94 033e b265 583d
000001d0: f4ec 1abe b886 723d c515 973c 9c15 233d
000001e0: fd77 843d a051 253e 9890 e93c 0ae0 cabd
000001f0: 3c36 5abe d06f aabd 43d8 f03b bf8d a93d
00000200: b5db c8bc 9697 6a3d 6601 7abd 6e5b e7bd
00000210: 3477 f23d 7e27 65bd e074 ce3c 2007 903d
00000220: d441 443d 2f75 c1bd 50f7 45bd a816 a63d
00000230: a23e 403d 30ac 3dbd d488 b3ba 31b3 703c
00000240: 310c 36bd 3d9f a13c 4cb4 21bd b9f1 09bd
00000250: 4a76 563e 6e70 b73d 1940 1e3e 4ccb b1bd
00000260: c576 c03d 5842 753c 839f febd 03ff c2bc
00000270: b839 08be bfcf 99bb 9d6f 1cbe 0ba1 8b3d
00000280: 6734 13be 31d2 ca3d 679c 33bb 90ea 943d
00000290: 843d 3ebd 084d 42bd 7d20 61be fbef b3bd
000002a0: 107e b83d 8a84 27be d0d7 743d 3992 fdbc
000002b0: 0ce9 833d 6f6e 383e f601 263d db4a 42bd
000002c0: 1717 c73d bf8c e03d ce22 c2bd a87b 80bd
000002d0: 212c a63c 6532 643c f8c9 113d 87f0 8bbd
000002e0: 006c 853c 4d0b 803d c791 393d 58f3 42bd
000002f0: 4b16 eb3d 79ad b23d f057 07be 5223 1dbe
00000300: 6e8a 753d 260b 713c a05b 00bd 9df3 843d
00000310: 47b0 183b f504 5ebc 5c81 c2bc fbb2 ce3d
00000320: cd6b 47be b225 b5bd d1f2 67bc b4ca 8b3d
00000330: 4171 fdbb 223f c6bc d0a3 813d 5105 1a3e
00000340: 22fb ad3d 26e0 f2bc 836f b53d a54e da3d
00000350: 2342 b6bd 702b 983c 4419 893d a69b 873d
00000360: eb31 673d 202a 20be db9f 123d 3701 4bbc
00000370: e890 89bd 2526 c83c 4866 993d 56da 9bbc
00000380: f5cd b43c 7181 903d 349c bd3c c95b 223e
00000390: 044d 95bc 8a8c 733e 7d3a 01bd 0438 f6bd
000003a0: 9831 3cbe cff5 1cbe f6b8 b1be 7f76 b5bc
000003b0: a428 d4bd b55a 43bc 2d12 03be b895 113c
000003c0: c866 9d3a 769f b1bc fae5 5b3d 87b1 55bb
000003d0: 2838 cb3d f634 5cbd 3435 d53c b347 33bd
000003e0: 4339 89bd 7e06 523d 50f2 b9bd 53cf df3d
000003f0: 166e 9abd db1c b1bd 6eee 8fbc ad94 06be
-0.06718452 -0.10028017 -0.03719244 0.109760635 -0.054724354 -0.099178165 0.005934321 0.07659967
0.002265088 0.12455497 -0.0013532566 0.13748017 -0.06263859 -0.013774891 0.035578314 -0.038072612
-0.13851506 -0.0014399191 0.038642704 0.16588426 -0.044506725 0.15181138 0.076593734 0.04121673
0.025257967 0.02744446 -0.110671364 -0.044667304 0.03297603 -0.026829084 -0.01446289 -0.14196222
-0.076889835 0.069197945 0.00083779806 -0.1645623 0.0033400168 0.023834601 -0.059009146 -0.014397458
0.12859654 -0.117866516 -0.048839223 -0.012160374 0.08901494 0.19339429 -0.09470942 0.024580339
-0.09016309 -0.047629286 -0.061221443 -0.07094301 -0.030375248 0.13267711 0.029853363 0.008109913
-0.097276285 0.051375132 -0.020654555 0.0081711365 0.020261563 0.06357223 -0.02585213 -0.04591813
0.05431286 -0.103312984 -0.13970697 -0.100309044 0.24733196 0.08247332 -0.014156054 0.064084224
0.032962706 0.17467508 0.122544244 -0.03266845 -0.025579482 -0.0826232 0.030175071 -0.16237552
0.11202966 -0.06649385 -0.101288565 0.22191702 0.13455139 0.08110949 -0.16361848 -0.13204023
0.02107869 -0.20531091 0.053240255 0.08873754 -0.15004776 0.08055178 0.056531888 -0.13734975
0.11083488 -0.11511712 -0.022099344 -0.019115169 -0.052914903 0.10963863 0.14633249 -0.06606979
0.0047953664 0.013549482 0.06832662 0.08023045 -0.037548684 0.116927445 0.0769609 -0.01528123
0.035242945 -0.021920452 0.12849493 0.05283136 -0.15129453 0.05921051 0.018442998 0.03981553
0.064681984 0.16144419 0.02851133 -0.09906013 -0.21309751 -0.08322108 0.007349999 0.08278989
-0.024518827 0.05727347 -0.06103649 -0.11296736 0.118391424 -0.055945866 0.025202215 0.07032609
0.04791434 -0.09446179 -0.04833156 0.0810979 0.04693473 -0.04630679 -0.0013697394 0.01469116
-0.04444522 0.019729251 -0.039478585 -0.03367779 0.20943561 0.08956991 0.15454139 -0.08681354
0.093976535 0.014969431 -0.12432768 -0.02380324 -0.13303268 -0.0046939547 -0.15276952 0.06817826
-0.14375459 0.09903372 -0.0027406455 0.07271302 -0.046445385 -0.047436744 -0.2198505 -0.08786007
0.090084195 -0.16359153 0.059776127 -0.030953513 0.064409345 0.18010877 0.040529214 -0.04743467
0.09721201 0.10964345 -0.09479295 -0.062735856 0.020284714 0.013928031 0.035593003 -0.06832986
0.01628685 0.062521555 0.04530504 -0.047595352 0.114788614 0.087244935 -0.13217139 -0.15345505
0.05994647 0.014712131 -0.03133738 0.06491778 0.002329843 -0.013550987 -0.023743324 0.100927316
-0.19474716 -0.088450804 -0.014157013 0.06825772 -0.007734448 -0.024200026 0.06330073 0.1504109
0.084951654 -0.029647898 0.0885916 0.106595315 -0.08899333 0.0185754 0.06694272 0.066214845
0.05644409 -0.1564107 0.03579698 -0.012390426 -0.06717092 0.024432251 0.07490212 -0.01902501
0.022070864 0.07055939 0.023145773 0.15855326 -0.0182252 0.2378408 -0.03154992 -0.12022403
-0.18378294 -0.15328144 -0.34711426 -0.02215123 -0.10359314 -0.011923482 -0.12799902 0.008885793
0.0012008781 -0.021682482 0.05368612 -0.0032607035 0.0992282 -0.053761445 0.026026346 -0.04376955
-0.06700375 0.051275723 -0.090794206 0.10928216 -0.075405285 -0.08648082 -0.017569747 -0.13142653

network_body._body_endoder.seq_layers.2.bias f4 [128]
00000000: dc6a 32bb 0d75 ffbc 22ef a6bc 387e f63c
00000010: 3667 023d a2b5 0fbd 3ba9 8b3c c30f c83c
00000020: 3af1 af3c 6dbf 853d 63a8 27bc f3f6 033d
00000030: b0f0 893c ce36 a23c 094f 79bb c92d 013c
00000040: f149 cf3c 9e6c b9bc 7410 883d 1adc c3bc
00000050: 7d2b 673c 517b 87bc 6b11 763c 7162 283d
00000060: dbf6 1f3c 586d 9dbc c432 2ebc b747 523c
00000070: 4cb1 943c 817d 8fbc ef82 1bbc 8775 a6bb
00000080: bc6c fc3c 407b cd3c b234 0d3d 6f63 bebc
00000090: 6083 e73c aa3a d43c ef86 cabc f294 0f3d
000000a0: e350 873d 6bce 31bb 19cd 633b ec65 0abd
000000b0: a724 c0bb 5d31 b93c e584 733c c1c7 f9bc
000000c0: 4afe 61bc b959 663c bd05 893b c14e 9c3c
000000d0: 12d3 6d3c c8fd b4bc ab5c 063d c89d a73c
000000e0: fcc4 edbb 1c94 dfbc 5d5f 0dbd 151a b53c
000000f0: 68e1 253c dfc2 8f3b 0d15 ac3c 7d78 5bbc
00000100: ab97 9c3b 355f 423b bd56 f53c 5526 3d3d
00000110: 6459 a3bc d663 0cbb 2a3e 133c 23a7 323d
00000120: 60ca bf3c 9169 bf3c 2830 183d f88b 4c3d
00000130: b120 303d a43d 27bc 1f92 be3b e3fd 393d
00000140: 5055 a3bc b413 8dbb e123 463c 694c 6437
00000150: 4937 a8bc ffcc 82bc 64cf c23c 49f0 163d
00000160: 451f f93b d55b 21bd 8466 77bc 641f 1d3d
00000170: 9726 513d efbe f5bc f9f2 cdbc 749c 233b
00000180: 9a8c 8ebc acd2 b13c 5f09 713d d242 6f3d
00000190: 2bc6 6fbc 8e46 773b ee9a fbbb 9b6a 7c3d
000001a0: df14 f33c c145 89bc 1bb9 3e3d 2942 3e3d
000001b0: 132f 813d 3ec2 f53c bb4d 193d 6341 883b
000001c0: 2511 de3c 6210 0b3d e94e 073d 4cb1 f4bb
000001d0: 532c 453d 6cd2 fe3c 73d7 9bbc f78e ffbc
000001e0: 2096 013b d27f 90bc 532d debc 22b7 bdbb
000001f0: 11a3 013d 4116 113d 4047 11bc cbb8 023d
-0.0027224338 -0.031183744 -0.0203777 0.030089483 0.03183671 -0.035085328 0.017048469 0.024421578
0.02147733 0.06530652 -0.010233018 0.03221793 0.016838402 0.019801524 -0.0038041493 0.007884451
0.025303813 -0.0226348 0.06643763 -0.023908664 0.0141094895 -0.016538294 0.015018801 0.041109506
0.009763445 -0.019217178 -0.010632221 0.012834481 0.018150948 -0.0175159 -0.009491666 -0.0050799283
0.030813567 0.025083184 0.034474082 -0.023240773 0.028260887 0.02590688 -0.024722544 0.035054155
0.06607225 -0.0027131091 0.00347597 -0.033788607 -0.0058637443 0.022606546 0.0148632275 -0.030490758
-0.013793537 0.0140594775 0.0041815923 0.019080522 0.014515655 -0.022093669 0.03280322 0.020460978
-0.0072561484 -0.027292304 -0.034514774 0.022107163 0.010124542 0.004387244 0.021006132 -0.013395426
0.0047788224 0.0029658799 0.029948587 0.046179134 -0.019940086 -0.0021421812 0.008986989 0.043616425
0.02341193 0.023365768 0.0371553 0.049938172 0.042999927 -0.010207567 0.005815759 0.04540814
-0.019938141 -0.0043053273 0.012093515 1.360765e-05 -0.020534175 -0.01596689 0.023780532 0.036850248
0.0076026046 -0.03939422 -0.015100125 0.038360015 0.051062193 -0.02999827 -0.025140272 0.002496508
-0.017401028 0.021706901 0.058846828 0.058413334 -0.014634649 0.0037731263 -0.007678381 0.061625104
0.029673038 -0.016756894 0.04656325 0.046449814 0.06307807 0.029999848 0.037427645 0.0041581853
0.027107785 0.03395117 0.03303424 -0.0074674245 0.048137974 0.031106196 -0.019023633 -0.0311961
0.001977332 -0.017639074 -0.027121222 -0.0057896534 0.031649653 0.035421614 -0.008867085 0.031914514

action_model._discrete_distribution.branches.0.weight f4 [7, 128]
00000000: 98b4 853c f77b a83c 449a 96bb 791d 51bc
00000010: 56ba dfbb 729e f93b 3598 59bb deeb bbbb
00000020: 6a44 7ebc 2ff9 0d3c 05a2 843c 5f5d a9bb
00000030: 8ce9 07bb 7971 3fbb a432 833c 1282 a93b
00000040: 8c74 f8bb dd1a feba 15f6 5cbc 514c febb
00000050: ec07 d6bc 2b2c 87bb 6ad8 363a 70f9 16bc
00000060: 8cc3 963a 7b20 8c3c 8342 c73c 4f94 493b
00000070: dbf9 7dbc f189 bd3b b26c b2bc 41aa 313b
00000080: 5086 533a 5642 c43b 1e4e 3ebc b9ba 633a
00000090: f8d3 47bc b14a 86ba 681d 423c e5aa c2bc
000000a0: 3cae 1fbb 8fc7 6a3c bb0f ba3b d869 0bba
000000b0: a041 d5bc 4143 353c 2065 a13b fa15 c53b
000000c0: 118c f23b 6ad0 2b3c aaad b23b 946c ae3c
000000d0: 6fb1 9cbc 0133 7b3a 1dc1 a5bc 04b7 793c
000000e0: bf77 d1bb 5a1b 8039 bfb8 143d 5023 5e3c
000000f0: 228e a23b 0459 463b da6b 8f3c bc2f f2ba
00000100: 0056 34bc 8b1c abbc 90cc ed3b 96c5 183c
00000110: 2f6a 913c 82d5 5f3b ca43 dbb9 9a5c 7c3a
00000120: 0c43 77bb 6f0c a23b cf87 193b cc3a 053b
00000130: 4651 473c 274a 83bc 2942 ba3b 6fa9 18bb
00000140: 9f95 f53c 1597 84bc b75b 9c3b e4fc 6a3c
00000150: c524 ad3c 6d6c 513b 616f 403b cf48 133c
00000160: 9dd9 33bc f090 323c 8228 a6ba 59bb 1ebb
00000170: 1666 0e3c 05a9 d23c 5ef0 a2ba e057 adbc
00000180: be64 adbb 5139 9c3c c953 70bc 8590 1fbb
00000190: 8ff7 4e3b a491 223c d5ab d73c 932b 133a
000001a0: cd3f f1bc 03d1 28bc 4774 22bc abee 28bc
000001b0: 48a1 953a edaf 6c3c 2ba3 c03c d5e0 2f3c
000001c0: 3c79 f83b 212b d93b f252 4f3b 9a7a 82bb
000001d0: df5a f7ba 029f 04bc 0ef2 e8bc 14a0 ed3c
000001e0: 9fef 04bc 0db7 773c 02a4 863b a1bf bb3c
000001f0: b276 81bc 2d43 323b 1725 033a b119 68bb
00000200: 97eb 4f3a c9d1 88bd f125 44bd 1375 933c
00000210: d333 8f3c 5f3d 16bc 260e ec3c ca59 863c
00000220: d094 be3b 16d4 153d 8b81 06bc b1f7 a73c
00000230: 80ad 843c 2d50 8b3c 49ac 32bb c82d e33b
00000240: 7cec bdba 09b3 64bd cf82 6e3d 5b94 fbbc
00000250: 0fe7 f93b 9fa5 7abc 3fad 983c 7896 2e3d
00000260: a39e 743a ebde 79bd b9ac 78bd 199f 3b3c
00000270: e663 c73c 6c79 3bbd fb5f d3bc 9a9d 07bb
00000280: 6df5 c93c 1463 bb3c ffc3 503c 2b8c c6bc
00000290: b470 273c 1034 5a3c 7e09 c8bc e79a 623c
000002a0: 809b 2a3d bc8e 7abd e007 60bd fd30 8ebd
000002b0: 1ac1 c2bc 7a4d 493c 76d1 9b3c 0744 12bc
000002c0: 01a7 9ebb 74e3 8c3c 5f8b 0b3c fbe2 ee3c
000002d0: 2735 813a 4a01 9e3a ec18 923b 6e27 763c
000002e0: 760c b339 d6e1 8fbc 1f82 79bd fcd9 973c
000002f0: 7a40 5cbc 9d52 81bb ae7a 993c e66a b7bb
00000300: 0bd2 483b 98ed acbb aa4b ae3c bc77 363d
00000310: a94f a93a b30a 2d3c efc1 273c 637d a33c
00000320: 60be 4e3c 8c7c a93c 1a54 533c 1d8e b03c
00000330: d3be a63c 5d38 ad3b 61e7 e13a 5684 f23c
00000340: 3829 81bd 23a4 91bb 8b4a ed39 85db f73b
00000350: b16f 08bd c6f7 2aba 7e97 fb3c 0425 c63c
00000360: 61c4 2abb 69ab 72bd fcaf bfbc eea6 a33c
00000370: b585 e63c 1355 e9bc b1b2 f9bc b0cd 09bb
00000380: 8311 a1bb 8aef 4c3c c285 093d afd8 5c3d
00000390: 3750 1f3c 800a 5b3c 3638 05bd ccd7 5a3d
000003a0: d5a1 ba3c d0ea 2fba badf e53c 79e6 da3c
000003b0: 409b 2d3d 42ac 973c 594e ca3c adfc 4c3c
000003c0: 43ed a03c c1d8 2f3c 5381 c63c 6d5a b33b
000003d0: 464c 043d 8360 ed3c 4cf2 c2bb 0a9e 19bd
000003e0: 6aaa 113c 6a51 6ebd 2a2b 3cbc 3461 3dbd
000003f0: 187f 013c 0794 9b3c ed7d 233c cd6a 153c
0.016321465 0.020566924 -0.0045960266 -0.0127633745 -0.006827633 0.007617765 -0.0033202295 -0.0057349047
-0.015519241 0.008665367 0.016190538 -0.0051686014 -0.002073857 -0.0029211922 0.016015358 0.0051729763
-0.007582253 -0.0019386668 -0.013486405 -0.0077605625 -0.026126824 -0.0041251383 0.0006974997 -0.009214744
0.0011502369 0.017105332 0.024323707 0.0030758565 -0.015501465 0.005784266 -0.021780346 0.0027109536
0.00080690254 0.005989353 -0.011615304 0.00086871866 -0.012196533 -0.0010245648 0.011847831 -0.02376313
-0.0024365326 0.014329805 0.0056781447 -0.0005318201 -0.026032269 0.011063398 0.004925385 0.0060145827
0.007401951 0.0104867015 0.0054528313 0.021292008 -0.019127576 0.00095824903 -0.020233685 0.015241388
-0.0063924487 0.0002443444 0.036309 0.013558224 0.004960791 0.003026546 0.017507482 -0.0018477361
-0.011006832 -0.020887634 0.0072570518 0.009324452 0.017750828 0.003415436 -0.00041821442 0.0009626836
-0.0037729172 0.00494533 0.0023426895 0.0020329235 0.012165373 -0.01602657 0.0056841564 -0.002329435
0.029978571 -0.016185323 0.0047716754 0.01434252 0.021135697 0.0031955496 0.0029363262 0.008989527
-0.010977176 0.010898814 -0.0012676867 -0.0024220555 0.008691331 0.02571536 -0.0012431254 -0.021160066
-0.0052915504 0.0190703 -0.014668413 -0.0024347615 0.0031580662 0.009922419 0.026327053 0.0005614098
-0.029449368 -0.0103037385 -0.009915418 -0.010310809 0.0011415863 0.014446241 0.023515305 0.0107347565
0.0075828116 0.006627456 0.0031635133 -0.0039819004 -0.0018871686 -0.008094551 -0.028435733 0.029006995
-0.008113771 0.015119326 0.0041089067 0.022918524 -0.015803669 0.0027200684 0.000500278 -0.0035415704
0.0007931529 -0.06680638 -0.047887746 0.018000161 0.017480766 -0.009169905 0.02881534 0.016400237
0.0058160797 0.036579214 -0.008209596 0.02050385 0.016196012 0.017006004 -0.0027263334 0.006932948
-0.0014490033 -0.055834804 0.058230218 -0.03071039 0.0076264213 -0.015298276 0.018637298 0.042623967
0.00093315 -0.061003607 -0.060711596 0.011451506 0.024339627 -0.045770094 -0.025802603 -0.0020693303
0.024653161 0.022874393 0.012742042 -0.02423676 0.010219742 0.013318077 -0.024418589 0.013830877
0.041652203 -0.06117128 -0.05469501 -0.069429375 -0.023773719 0.012286538 0.019020777 -0.008927352
-0.0048416858 0.017198302 0.008517115 0.029160967 0.000985776 0.0012054828 0.0044585373 0.015024049
0.00034150825 -0.017563742 -0.06091511 0.01853656 -0.013443107 -0.003946616 0.018735256 -0.00559746
0.0030642773 -0.005277347 0.021276314 0.04454778 0.0012917417 0.010561633 0.010239108 0.01995725
0.012618631 0.020689271 0.012898469 0.02155214 0.020354664 0.00528626 0.0017235094 0.029604118
-0.0630669 -0.0044446154 0.000452597 0.0075640106 -0.033309642 -0.00065219065 0.030711886 0.024187572
-0.0026056992 -0.0592455 -0.023399346 0.01997706 0.028139928 -0.02848295 -0.030480715 -0.002102714
-0.0049154176 0.012508282 0.033574827 0.053917583 0.009723715 0.013369203 -0.03252431 0.053428456
0.022782246 -0.000671071 0.028060783 0.026721226 0.042384386 0.018514756 0.024695562 0.0125114145
0.019644385 0.0107328305 0.024231588 0.005473426 0.032299303 0.028976684 -0.005949294 -0.037504233
0.008890728 -0.05818311 -0.0114849005 -0.04623528 0.007903837 0.018991483 0.0099787535 0.009119702

action_model._discrete_distribution.branches.0.bias f4 [7]
00000000: f3da 82bc 92f5 5c3d 17c4 49bb 4b71 cfbc
00000010: 607e 91bc f6ec 78bc 026d 433b
-0.015973544 0.05394513 -0.0030787045 -0.025322577 -0.017760456 -0.015193215 0.0029819612
